…
max_iter: 400000
lr_policy: "step"
gamma: 0.1
momentum: 0.9
weight_decay: 0.0005
stepsize: 20000
snapshot: 10000
snapshot_prefix: "../models/vggnet_softmax"
solver_mode: GPU
net: "../train.prototxt"
I0608 11:29:44.200028 19748 solver.cpp:87] Creating training net from net file: ../train.prototxt
I0608 11:29:44.200850 19748 net.cpp:51] Initializing net from parameters: 
name: "VGG_FACE_16_layers"
state {
  phase: TRAIN
}
layer {
  name: "data"
  type: "Python"
  top: "data"
  top: "labels"
  python_param {
    module: "datalayer"
    layer: "DataLayer"
  }
}
layer {
  name: "conv1_1"
  type: "Convolution"
  bottom: "data"
  top: "conv1_1"
  param {
    lr_mult: 0
    decay_mult: 0
  }
  param {
    lr_mult: 0
    decay_mult: 0
  }
  convolution_param {
    num_output: 64
    pad: 1
    kernel_size: 3
    weight_filler {
      type: "xavier"
    }
  }
}
layer {
  name: "relu1_1"
  type: "ReLU"
  bottom: "conv1_1"
  top: "conv1_1"
}
layer {
  name: "conv1_2"
  type: "Convolution"
  bottom: "conv1_1"
  top: "conv1_2"
  param {
    lr_mult: 0
    decay_mult: 0
  }
  param {
    lr_mult: 0
    decay_mult: 0
  }
  convolution_param {
    num_output: 64
    pad: 1
    kernel_size: 3
    weight_filler {
      type: "xavier"
    }
  }
}
layer {
  name: "relu1_2"
  type: "ReLU"
  bottom: "conv1_2"
  top: "conv1_2"
}
layer {
  name: "pool1"
  type: "Pooling"
  bottom: "conv1_2"
  top: "pool1"
  pooling_param {
    pool: MAX
    kernel_size: 2
    stride: 2
  }
}
layer {
  name: "conv2_1"
  type: "Convolution"
  bottom: "pool1"
  top: "conv2_1"
  param {
    lr_mult: 0
    decay_mult: 0
  }
  param {
    lr_mult: 0
    decay_mult: 0
  }
  convolution_param {
    num_output: 128
    pad: 1
    kernel_size: 3
    weight_filler {
      type: "xavier"
    }
  }
}
layer {
  name: "relu2_1"
  type: "ReLU"
  bottom: "conv2_1"
  top: "conv2_1"
}
layer {
  name: "conv2_2"
  type: "Convolution"
  bottom: "conv2_1"
  top: "conv2_2"
  param {
    lr_mult: 0
    decay_mult: 0
  }
  param {
    lr_mult: 0
    decay_mult: 0
  }
  convolution_param {
    num_output: 128
    pad: 1
    kernel_size: 3
    weight_filler {
      type: "xavier"
    }
  }
}
layer {
  name: "relu2_2"
  type: "ReLU"
  bottom: "conv2_2"
  top: "conv2_2"
}
layer {
  name: "pool2"
  type: "Pooling"
  bottom: "conv2_2"
  top: "pool2"
  pooling_param {
    pool: MAX
    kernel_size: 2
    stride: 2
  }
}
layer {
  name: "conv3_1"
  type: "Convolution"
  bottom: "pool2"
  top: "conv3_1"
  param {
    lr_mult: 0
    decay_mult: 0
  }
  param {
    lr_mult: 0
    decay_mult: 0
  }
  convolution_param {
    num_output: 256
    pad: 1
    kernel_size: 3
    weight_filler {
      type: "xavier"
    }
  }
}
layer {
  name: "relu3_1"
  type: "ReLU"
  bottom: "conv3_1"
  top: "conv3_1"
}
layer {
  name: "conv3_2"
  type: "Convolution"
  bottom: "conv3_1"
  top: "conv3_2"
  param {
    lr_mult: 0
    decay_mult: 0
  }
  param {
    lr_mult: 0
    decay_mult: 0
  }
  convolution_param {
    num_output: 256
    pad: 1
    kernel_size: 3
    weight_filler {
      type: "xavier"
    }
  }
}
layer {
  name: "relu3_2"
  type: "ReLU"
  bottom: "conv3_2"
  top: "conv3_2"
}
layer {
  name: "conv3_3"
  type: "Convolution"
  bottom: "conv3_2"
  top: "conv3_3"
  param {
    lr_mult: 0
    decay_mult: 0
  }
  param {
    lr_mult: 0
    decay_mult: 0
  }
  convolution_param {
    num_output: 256
    pad: 1
    kernel_size: 3
    weight_filler {
      type: "xavier"
    }
  }
}
layer {
  name: "relu3_3"
  type: "ReLU"
  bottom: "conv3_3"
  top: "conv3_3"
}
layer {
  name: "pool3"
  type: "Pooling"
  bottom: "conv3_3"
  top: "pool3"
  pooling_param {
    pool: MAX
    kernel_size: 2
    stride: 2
  }
}
layer {
  name: "conv4_1"
  type: "Convolution"
  bottom: "pool3"
  top: "conv4_1"
  param {
    lr_mult: 0
    decay_mult: 0
  }
  param {
    lr_mult: 0
    decay_mult: 0
  }
  convolution_param {
    num_output: 512
    pad: 1
    kernel_size: 3
    weight_filler {
      type: "xavier"
    }
  }
}
layer {
  name: "relu4_1"
  type: "ReLU"
  bottom: "conv4_1"
  top: "conv4_1"
}
layer {
  name: "conv4_2"
  type: "Convolution"
  bottom: "conv4_1"
  top: "conv4_2"
  param {
    lr_mult: 0
    decay_mult: 0
  }
  param {
    lr_mult: 0
    decay_mult: 0
  }
  convolution_param {
    num_output: 512
    pad: 1
    kernel_size: 3
    weight_filler {
      type: "xavier"
    }
  }
}
layer {
  name: "relu4_2"
  type: "ReLU"
  bottom: "conv4_2"
  top: "conv4_2"
}
layer {
  name: "conv4_3"
  type: "Convolution"
  bottom: "conv4_2"
  top: "conv4_3"
  param {
    lr_mult: 0
    decay_mult: 0
  }
  param {
    lr_mult: 0
    decay_mult: 0
  }
  convolution_param {
    num_output: 512
    pad: 1
    kernel_size: 3
    weight_filler {
      type: "xavier"
    }
  }
}
layer {
  name: "relu4_3"
  type: "ReLU"
  bottom: "conv4_3"
  top: "conv4_3"
}
layer {
  name: "pool4"
  type: "Pooling"
  bottom: "conv4_3"
  top: "pool4"
  pooling_param {
    pool: MAX
    kernel_size: 2
    stride: 2
  }
}
layer {
  name: "conv5_1"
  type: "Convolution"
  bottom: "pool4"
  top: "conv5_1"
  param {
    lr_mult: 0
    decay_mult: 0
  }
  param {
    lr_mult: 0
    decay_mult: 0
  }
  convolution_param {
    num_output: 512
    pad: 1
    kernel_size: 3
    weight_filler {
      type: "xavier"
    }
  }
}
layer {
  name: "relu5_1"
  type: "ReLU"
  bottom: "conv5_1"
  top: "conv5_1"
}
layer {
  name: "conv5_2"
  type: "Convolution"
  bottom: "conv5_1"
  top: "conv5_2"
  param {
    lr_mult: 0
    decay_mult: 0
  }
  param {
    lr_mult: 0
    decay_mult: 0
  }
  convolution_param {
    num_output: 512
    pad: 1
    kernel_size: 3
    weight_filler {
      type: "xavier"
    }
  }
}
layer {
  name: "relu5_2"
  type: "ReLU"
  bottom: "conv5_2"
  top: "conv5_2"
}
layer {
  name: "conv5_3"
  type: "Convolution"
  bottom: "conv5_2"
  top: "conv5_3"
  param {
    lr_mult: 0
    decay_mult: 0
  }
  param {
    lr_mult: 0
    decay_mult: 0
  }
  convolution_param {
    num_output: 512
    pad: 1
    kernel_size: 3
    weight_filler {
      type: "xavier"
    }
  }
}
layer {
  name: "relu5_3"
  type: "ReLU"
  bottom: "conv5_3"
  top: "conv5_3"
}
layer {
  name: "pool5"
  type: "Pooling"
  bottom: "conv5_3"
  top: "pool5"
  pooling_param {
    pool: MAX
    kernel_size: 2
    stride: 2
  }
}
layer {
  name: "fc6"
  type: "InnerProduct"
  bottom: "pool5"
  top: "fc6"
  param {
    lr_mult: 0
    decay_mult: 0
  }
  param {
    lr_mult: 0
    decay_mult: 0
  }
  inner_product_param {
    num_output: 4096
    weight_filler {
      type: "xavier"
    }
  }
}
layer {
  name: "relu6"
  type: "ReLU"
  bottom: "fc6"
  top: "fc6"
}
layer {
  name: "drop6"
  type: "Dropout"
  bottom: "fc6"
  top: "fc6"
  dropout_param {
    dropout_ratio: 0.5
  }
}
layer {
  name: "fc7"
  type: "InnerProduct"
  bottom: "fc6"
  top: "fc7"
  param {
    lr_mult: 0
    decay_mult: 0
  }
  param {
    lr_mult: 0
    decay_mult: 0
  }
  inner_product_param {
    num_output: 4096
    weight_filler {
      type: "xavier"
    }
  }
}
layer {
  name: "relu7"
  type: "ReLU"
  bottom: "fc7"
  top: "fc7"
}
layer {
  name: "drop7"
  type: "Dropout"
  bottom: "fc7"
  top: "fc7"
  dropout_param {
    dropout_ratio: 0.5
  }
}
layer {
  name: "norm2"
  type: "Python"
  bottom: "fc7"
  top: "norm2"
  python_param {
    module: "norm2layer"
    layer: "Norm2Layer"
  }
}
layer {
  name: "fc9_1"
  type: "InnerProduct"
  bottom: "norm2"
  top: "fc9_1"
  param {
    lr_mult: 1
    decay_mult: 0
  }
  inner_product_param {
    num_output: 34
    weight_filler {
      type: "xavier"
    }
  }
}
layer {
  name: "triplet_select"
  type: "Python"
  bottom: "fc9_1"
  bottom: "labels"
  top: "archor"
  top: "positive"
  top: "negative"
  python_param {
    module: "tripletselectlayer"
    layer: "TripletSelectLayer"
  }
}
layer {
  name: "tripletloss"
  type: "Python"
  bottom: "archor"
  bottom: "positive"
  bottom: "negative"
  top: "loss"
  loss_weight: 1
  python_param {
    module: "tripletlosslayer"
    layer: "TripletLayer"
    param_str: "\'margin\': 0.2"
  }
}
I0608 11:29:44.200958 19748 layer_factory.hpp:77] Creating layer data
I0608 11:29:44.245370 19748 net.cpp:84] Creating Layer data
I0608 11:29:44.245398 19748 net.cpp:380] data -> data
I0608 11:29:44.245409 19748 net.cpp:380] data -> labels
I0608 11:29:56.155128 19748 net.cpp:122] Setting up data
I0608 11:29:56.155174 19748 net.cpp:129] Top shape: 30 3 224 224 (4515840)
I0608 11:29:56.155179 19748 net.cpp:129] Top shape: 30 (30)
I0608 11:29:56.155181 19748 net.cpp:137] Memory required for data: 18063480
I0608 11:29:56.155190 19748 layer_factory.hpp:77] Creating layer conv1_1
I0608 11:29:56.155238 19748 net.cpp:84] Creating Layer conv1_1
I0608 11:29:56.155243 19748 net.cpp:406] conv1_1 <- data
I0608 11:29:56.155251 19748 net.cpp:380] conv1_1 -> conv1_1
I0608 11:29:56.895267 19748 net.cpp:122] Setting up conv1_1
I0608 11:29:56.895304 19748 net.cpp:129] Top shape: 30 64 224 224 (96337920)
I0608 11:29:56.895308 19748 net.cpp:137] Memory required for data: 403415160
I0608 11:29:56.895325 19748 layer_factory.hpp:77] Creating layer relu1_1
I0608 11:29:56.895342 19748 net.cpp:84] Creating Layer relu1_1
I0608 11:29:56.895346 19748 net.cpp:406] relu1_1 <- conv1_1
I0608 11:29:56.895351 19748 net.cpp:367] relu1_1 -> conv1_1 (in-place)
I0608 11:29:56.895531 19748 net.cpp:122] Setting up relu1_1
I0608 11:29:56.895542 19748 net.cpp:129] Top shape: 30 64 224 224 (96337920)
I0608 11:29:56.895546 19748 net.cpp:137] Memory required for data: 788766840
I0608 11:29:56.895550 19748 layer_factory.hpp:77] Creating layer conv1_2
I0608 11:29:56.895563 19748 net.cpp:84] Creating Layer conv1_2
I0608 11:29:56.895567 19748 net.cpp:406] conv1_2 <- conv1_1
I0608 11:29:56.895572 19748 net.cpp:380] conv1_2 -> conv1_2
I0608 11:29:56.898442 19748 net.cpp:122] Setting up conv1_2
I0608 11:29:56.898457 19748 net.cpp:129] Top shape: 30 64 224 224 (96337920)
I0608 11:29:56.898459 19748 net.cpp:137] Memory required for data: 1174118520
I0608 11:29:56.898468 19748 layer_factory.hpp:77] Creating layer relu1_2
I0608 11:29:56.898475 19748 net.cpp:84] Creating Layer relu1_2
I0608 11:29:56.898478 19748 net.cpp:406] relu1_2 <- conv1_2
I0608 11:29:56.898483 19748 net.cpp:367] relu1_2 -> conv1_2 (in-place)
I0608 11:29:56.899348 19748 net.cpp:122] Setting up relu1_2
I0608 11:29:56.899360 19748 net.cpp:129] Top shape: 30 64 224 224 (96337920)
I0608 11:29:56.899363 19748 net.cpp:137] Memory required for data: 1559470200
I0608 11:29:56.899368 19748 layer_factory.hpp:77] Creating layer pool1
I0608 11:29:56.899375 19748 net.cpp:84] Creating Layer pool1
I0608 11:29:56.899379 19748 net.cpp:406] pool1 <- conv1_2
I0608 11:29:56.899384 19748 net.cpp:380] pool1 -> pool1
I0608 11:29:56.899433 19748 net.cpp:122] Setting up pool1
I0608 11:29:56.899440 19748 net.cpp:129] Top shape: 30 64 112 112 (24084480)
I0608 11:29:56.899442 19748 net.cpp:137] Memory required for data: 1655808120
I0608 11:29:56.899446 19748 layer_factory.hpp:77] Creating layer conv2_1
I0608 11:29:56.899453 19748 net.cpp:84] Creating Layer conv2_1
I0608 11:29:56.899456 19748 net.cpp:406] conv2_1 <- pool1
I0608 11:29:56.899461 19748 net.cpp:380] conv2_1 -> conv2_1
I0608 11:29:56.902629 19748 net.cpp:122] Setting up conv2_1
I0608 11:29:56.902644 19748 net.cpp:129] Top shape: 30 128 112 112 (48168960)
I0608 11:29:56.902647 19748 net.cpp:137] Memory required for data: 1848483960
I0608 11:29:56.902657 19748 layer_factory.hpp:77] Creating layer relu2_1
I0608 11:29:56.902662 19748 net.cpp:84] Creating Layer relu2_1
I0608 11:29:56.902664 19748 net.cpp:406] relu2_1 <- conv2_1
I0608 11:29:56.902669 19748 net.cpp:367] relu2_1 -> conv2_1 (in-place)
I0608 11:29:56.903545 19748 net.cpp:122] Setting up relu2_1
I0608 11:29:56.903558 19748 net.cpp:129] Top shape: 30 128 112 112 (48168960)
I0608 11:29:56.903561 19748 net.cpp:137] Memory required for data: 2041159800
I0608 11:29:56.903565 19748 layer_factory.hpp:77] Creating layer conv2_2
I0608 11:29:56.903578 19748 net.cpp:84] Creating Layer conv2_2
I0608 11:29:56.903580 19748 net.cpp:406] conv2_2 <- conv2_1
I0608 11:29:56.903585 19748 net.cpp:380] conv2_2 -> conv2_2
I0608 11:29:56.906956 19748 net.cpp:122] Setting up conv2_2
I0608 11:29:56.906971 19748 net.cpp:129] Top shape: 30 128 112 112 (48168960)
I0608 11:29:56.906975 19748 net.cpp:137] Memory required for data: 2233835640
I0608 11:29:56.906980 19748 layer_factory.hpp:77] Creating layer relu2_2
I0608 11:29:56.906988 19748 net.cpp:84] Creating Layer relu2_2
I0608 11:29:56.906992 19748 net.cpp:406] relu2_2 <- conv2_2
I0608 11:29:56.906996 19748 net.cpp:367] relu2_2 -> conv2_2 (in-place)
I0608 11:29:56.907193 19748 net.cpp:122] Setting up relu2_2
I0608 11:29:56.907204 19748 net.cpp:129] Top shape: 30 128 112 112 (48168960)
I0608 11:29:56.907208 19748 net.cpp:137] Memory required for data: 2426511480
I0608 11:29:56.907212 19748 layer_factory.hpp:77] Creating layer pool2
I0608 11:29:56.907218 19748 net.cpp:84] Creating Layer pool2
I0608 11:29:56.907223 19748 net.cpp:406] pool2 <- conv2_2
I0608 11:29:56.907228 19748 net.cpp:380] pool2 -> pool2
I0608 11:29:56.907269 19748 net.cpp:122] Setting up pool2
I0608 11:29:56.907281 19748 net.cpp:129] Top shape: 30 128 56 56 (12042240)
I0608 11:29:56.907284 19748 net.cpp:137] Memory required for data: 2474680440
I0608 11:29:56.907287 19748 layer_factory.hpp:77] Creating layer conv3_1
I0608 11:29:56.907297 19748 net.cpp:84] Creating Layer conv3_1
I0608 11:29:56.907300 19748 net.cpp:406] conv3_1 <- pool2
I0608 11:29:56.907306 19748 net.cpp:380] conv3_1 -> conv3_1
I0608 11:29:56.911631 19748 net.cpp:122] Setting up conv3_1
I0608 11:29:56.911648 19748 net.cpp:129] Top shape: 30 256 56 56 (24084480)
I0608 11:29:56.911650 19748 net.cpp:137] Memory required for data: 2571018360
I0608 11:29:56.911659 19748 layer_factory.hpp:77] Creating layer relu3_1
I0608 11:29:56.911664 19748 net.cpp:84] Creating Layer relu3_1
I0608 11:29:56.911667 19748 net.cpp:406] relu3_1 <- conv3_1
I0608 11:29:56.911674 19748 net.cpp:367] relu3_1 -> conv3_1 (in-place)
I0608 11:29:56.912562 19748 net.cpp:122] Setting up relu3_1
I0608 11:29:56.912576 19748 net.cpp:129] Top shape: 30 256 56 56 (24084480)
I0608 11:29:56.912580 19748 net.cpp:137] Memory required for data: 2667356280
I0608 11:29:56.912582 19748 layer_factory.hpp:77] Creating layer conv3_2
I0608 11:29:56.912595 19748 net.cpp:84] Creating Layer conv3_2
I0608 11:29:56.912597 19748 net.cpp:406] conv3_2 <- conv3_1
I0608 11:29:56.912603 19748 net.cpp:380] conv3_2 -> conv3_2
I0608 11:29:56.917790 19748 net.cpp:122] Setting up conv3_2
I0608 11:29:56.917805 19748 net.cpp:129] Top shape: 30 256 56 56 (24084480)
I0608 11:29:56.917809 19748 net.cpp:137] Memory required for data: 2763694200
I0608 11:29:56.917814 19748 layer_factory.hpp:77] Creating layer relu3_2
I0608 11:29:56.917820 19748 net.cpp:84] Creating Layer relu3_2
I0608 11:29:56.917824 19748 net.cpp:406] relu3_2 <- conv3_2
I0608 11:29:56.917829 19748 net.cpp:367] relu3_2 -> conv3_2 (in-place)
I0608 11:29:56.918709 19748 net.cpp:122] Setting up relu3_2
I0608 11:29:56.918721 19748 net.cpp:129] Top shape: 30 256 56 56 (24084480)
I0608 11:29:56.918725 19748 net.cpp:137] Memory required for data: 2860032120
I0608 11:29:56.918727 19748 layer_factory.hpp:77] Creating layer conv3_3
I0608 11:29:56.918738 19748 net.cpp:84] Creating Layer conv3_3
I0608 11:29:56.918742 19748 net.cpp:406] conv3_3 <- conv3_2
I0608 11:29:56.918747 19748 net.cpp:380] conv3_3 -> conv3_3
I0608 11:29:56.924583 19748 net.cpp:122] Setting up conv3_3
I0608 11:29:56.924597 19748 net.cpp:129] Top shape: 30 256 56 56 (24084480)
I0608 11:29:56.924602 19748 net.cpp:137] Memory required for data: 2956370040
I0608 11:29:56.924607 19748 layer_factory.hpp:77] Creating layer relu3_3
I0608 11:29:56.924616 19748 net.cpp:84] Creating Layer relu3_3
I0608 11:29:56.924619 19748 net.cpp:406] relu3_3 <- conv3_3
I0608 11:29:56.924625 19748 net.cpp:367] relu3_3 -> conv3_3 (in-place)
I0608 11:29:56.924818 19748 net.cpp:122] Setting up relu3_3
I0608 11:29:56.924829 19748 net.cpp:129] Top shape: 30 256 56 56 (24084480)
I0608 11:29:56.924832 19748 net.cpp:137] Memory required for data: 3052707960
I0608 11:29:56.924835 19748 layer_factory.hpp:77] Creating layer pool3
I0608 11:29:56.924842 19748 net.cpp:84] Creating Layer pool3
I0608 11:29:56.924845 19748 net.cpp:406] pool3 <- conv3_3
I0608 11:29:56.924852 19748 net.cpp:380] pool3 -> pool3
I0608 11:29:56.924895 19748 net.cpp:122] Setting up pool3
I0608 11:29:56.924901 19748 net.cpp:129] Top shape: 30 256 28 28 (6021120)
I0608 11:29:56.924904 19748 net.cpp:137] Memory required for data: 3076792440
I0608 11:29:56.924907 19748 layer_factory.hpp:77] Creating layer conv4_1
I0608 11:29:56.924914 19748 net.cpp:84] Creating Layer conv4_1
I0608 11:29:56.924917 19748 net.cpp:406] conv4_1 <- pool3
I0608 11:29:56.924924 19748 net.cpp:380] conv4_1 -> conv4_1
I0608 11:29:56.934110 19748 net.cpp:122] Setting up conv4_1
I0608 11:29:56.934126 19748 net.cpp:129] Top shape: 30 512 28 28 (12042240)
I0608 11:29:56.934129 19748 net.cpp:137] Memory required for data: 3124961400
I0608 11:29:56.934135 19748 layer_factory.hpp:77] Creating layer relu4_1
I0608 11:29:56.934141 19748 net.cpp:84] Creating Layer relu4_1
I0608 11:29:56.934144 19748 net.cpp:406] relu4_1 <- conv4_1
I0608 11:29:56.934149 19748 net.cpp:367] relu4_1 -> conv4_1 (in-place)
I0608 11:29:56.935701 19748 net.cpp:122] Setting up relu4_1
I0608 11:29:56.935716 19748 net.cpp:129] Top shape: 30 512 28 28 (12042240)
I0608 11:29:56.935719 19748 net.cpp:137] Memory required for data: 3173130360
I0608 11:29:56.935722 19748 layer_factory.hpp:77] Creating layer conv4_2
I0608 11:29:56.935731 19748 net.cpp:84] Creating Layer conv4_2
I0608 11:29:56.935735 19748 net.cpp:406] conv4_2 <- conv4_1
I0608 11:29:56.935741 19748 net.cpp:380] conv4_2 -> conv4_2
I0608 11:29:56.949091 19748 net.cpp:122] Setting up conv4_2
I0608 11:29:56.949107 19748 net.cpp:129] Top shape: 30 512 28 28 (12042240)
I0608 11:29:56.949110 19748 net.cpp:137] Memory required for data: 3221299320
I0608 11:29:56.949120 19748 layer_factory.hpp:77] Creating layer relu4_2
I0608 11:29:56.949129 19748 net.cpp:84] Creating Layer relu4_2
I0608 11:29:56.949132 19748 net.cpp:406] relu4_2 <- conv4_2
I0608 11:29:56.949137 19748 net.cpp:367] relu4_2 -> conv4_2 (in-place)
I0608 11:29:56.950022 19748 net.cpp:122] Setting up relu4_2
I0608 11:29:56.950037 19748 net.cpp:129] Top shape: 30 512 28 28 (12042240)
I0608 11:29:56.950039 19748 net.cpp:137] Memory required for data: 3269468280
I0608 11:29:56.950042 19748 layer_factory.hpp:77] Creating layer conv4_3
I0608 11:29:56.950050 19748 net.cpp:84] Creating Layer conv4_3
I0608 11:29:56.950053 19748 net.cpp:406] conv4_3 <- conv4_2
I0608 11:29:56.950060 19748 net.cpp:380] conv4_3 -> conv4_3
I0608 11:29:56.964088 19748 net.cpp:122] Setting up conv4_3
I0608 11:29:56.964105 19748 net.cpp:129] Top shape: 30 512 28 28 (12042240)
I0608 11:29:56.964109 19748 net.cpp:137] Memory required for data: 3317637240
I0608 11:29:56.964114 19748 layer_factory.hpp:77] Creating layer relu4_3
I0608 11:29:56.964123 19748 net.cpp:84] Creating Layer relu4_3
I0608 11:29:56.964126 19748 net.cpp:406] relu4_3 <- conv4_3
I0608 11:29:56.964133 19748 net.cpp:367] relu4_3 -> conv4_3 (in-place)
I0608 11:29:56.964315 19748 net.cpp:122] Setting up relu4_3
I0608 11:29:56.964328 19748 net.cpp:129] Top shape: 30 512 28 28 (12042240)
I0608 11:29:56.964330 19748 net.cpp:137] Memory required for data: 3365806200
I0608 11:29:56.964334 19748 layer_factory.hpp:77] Creating layer pool4
I0608 11:29:56.964340 19748 net.cpp:84] Creating Layer pool4
I0608 11:29:56.964345 19748 net.cpp:406] pool4 <- conv4_3
I0608 11:29:56.964350 19748 net.cpp:380] pool4 -> pool4
I0608 11:29:56.964393 19748 net.cpp:122] Setting up pool4
I0608 11:29:56.964406 19748 net.cpp:129] Top shape: 30 512 14 14 (3010560)
I0608 11:29:56.964408 19748 net.cpp:137] Memory required for data: 3377848440
I0608 11:29:56.964411 19748 layer_factory.hpp:77] Creating layer conv5_1
I0608 11:29:56.964421 19748 net.cpp:84] Creating Layer conv5_1
I0608 11:29:56.964424 19748 net.cpp:406] conv5_1 <- pool4
I0608 11:29:56.964429 19748 net.cpp:380] conv5_1 -> conv5_1
I0608 11:29:56.979140 19748 net.cpp:122] Setting up conv5_1
I0608 11:29:56.979159 19748 net.cpp:129] Top shape: 30 512 14 14 (3010560)
I0608 11:29:56.979162 19748 net.cpp:137] Memory required for data: 3389890680
I0608 11:29:56.979169 19748 layer_factory.hpp:77] Creating layer relu5_1
I0608 11:29:56.979177 19748 net.cpp:84] Creating Layer relu5_1
I0608 11:29:56.979181 19748 net.cpp:406] relu5_1 <- conv5_1
I0608 11:29:56.979187 19748 net.cpp:367] relu5_1 -> conv5_1 (in-place)
I0608 11:29:56.980083 19748 net.cpp:122] Setting up relu5_1
I0608 11:29:56.980098 19748 net.cpp:129] Top shape: 30 512 14 14 (3010560)
I0608 11:29:56.980100 19748 net.cpp:137] Memory required for data: 3401932920
I0608 11:29:56.980103 19748 layer_factory.hpp:77] Creating layer conv5_2
I0608 11:29:56.980113 19748 net.cpp:84] Creating Layer conv5_2
I0608 11:29:56.980116 19748 net.cpp:406] conv5_2 <- conv5_1
I0608 11:29:56.980123 19748 net.cpp:380] conv5_2 -> conv5_2
I0608 11:29:56.993680 19748 net.cpp:122] Setting up conv5_2
I0608 11:29:56.993700 19748 net.cpp:129] Top shape: 30 512 14 14 (3010560)
I0608 11:29:56.993703 19748 net.cpp:137] Memory required for data: 3413975160
I0608 11:29:56.993710 19748 layer_factory.hpp:77] Creating layer relu5_2
I0608 11:29:56.993716 19748 net.cpp:84] Creating Layer relu5_2
I0608 11:29:56.993719 19748 net.cpp:406] relu5_2 <- conv5_2
I0608 11:29:56.993724 19748 net.cpp:367] relu5_2 -> conv5_2 (in-place)
I0608 11:29:56.994609 19748 net.cpp:122] Setting up relu5_2
I0608 11:29:56.994623 19748 net.cpp:129] Top shape: 30 512 14 14 (3010560)
I0608 11:29:56.994626 19748 net.cpp:137] Memory required for data: 3426017400
I0608 11:29:56.994629 19748 layer_factory.hpp:77] Creating layer conv5_3
I0608 11:29:56.994642 19748 net.cpp:84] Creating Layer conv5_3
I0608 11:29:56.994645 19748 net.cpp:406] conv5_3 <- conv5_2
I0608 11:29:56.994650 19748 net.cpp:380] conv5_3 -> conv5_3
I0608 11:29:57.008710 19748 net.cpp:122] Setting up conv5_3
I0608 11:29:57.008728 19748 net.cpp:129] Top shape: 30 512 14 14 (3010560)
I0608 11:29:57.008730 19748 net.cpp:137] Memory required for data: 3438059640
I0608 11:29:57.008738 19748 layer_factory.hpp:77] Creating layer relu5_3
I0608 11:29:57.008744 19748 net.cpp:84] Creating Layer relu5_3
I0608 11:29:57.008746 19748 net.cpp:406] relu5_3 <- conv5_3
I0608 11:29:57.008754 19748 net.cpp:367] relu5_3 -> conv5_3 (in-place)
I0608 11:29:57.008939 19748 net.cpp:122] Setting up relu5_3
I0608 11:29:57.008950 19748 net.cpp:129] Top shape: 30 512 14 14 (3010560)
I0608 11:29:57.008954 19748 net.cpp:137] Memory required for data: 3450101880
I0608 11:29:57.008956 19748 layer_factory.hpp:77] Creating layer pool5
I0608 11:29:57.008963 19748 net.cpp:84] Creating Layer pool5
I0608 11:29:57.008966 19748 net.cpp:406] pool5 <- conv5_3
I0608 11:29:57.008972 19748 net.cpp:380] pool5 -> pool5
I0608 11:29:57.009018 19748 net.cpp:122] Setting up pool5
I0608 11:29:57.009027 19748 net.cpp:129] Top shape: 30 512 7 7 (752640)
I0608 11:29:57.009030 19748 net.cpp:137] Memory required for data: 3453112440
I0608 11:29:57.009033 19748 layer_factory.hpp:77] Creating layer fc6
I0608 11:29:57.009050 19748 net.cpp:84] Creating Layer fc6
I0608 11:29:57.009054 19748 net.cpp:406] fc6 <- pool5
I0608 11:29:57.009059 19748 net.cpp:380] fc6 -> fc6
I0608 11:29:57.582003 19748 net.cpp:122] Setting up fc6
I0608 11:29:57.582048 19748 net.cpp:129] Top shape: 30 4096 (122880)
I0608 11:29:57.582052 19748 net.cpp:137] Memory required for data: 3453603960
I0608 11:29:57.582063 19748 layer_factory.hpp:77] Creating layer relu6
I0608 11:29:57.582077 19748 net.cpp:84] Creating Layer relu6
I0608 11:29:57.582082 19748 net.cpp:406] relu6 <- fc6
I0608 11:29:57.582088 19748 net.cpp:367] relu6 -> fc6 (in-place)
I0608 11:29:57.583170 19748 net.cpp:122] Setting up relu6
I0608 11:29:57.583184 19748 net.cpp:129] Top shape: 30 4096 (122880)
I0608 11:29:57.583189 19748 net.cpp:137] Memory required for data: 3454095480
I0608 11:29:57.583191 19748 layer_factory.hpp:77] Creating layer drop6
I0608 11:29:57.583197 19748 net.cpp:84] Creating Layer drop6
I0608 11:29:57.583201 19748 net.cpp:406] drop6 <- fc6
I0608 11:29:57.583205 19748 net.cpp:367] drop6 -> fc6 (in-place)
I0608 11:29:57.583248 19748 net.cpp:122] Setting up drop6
I0608 11:29:57.583253 19748 net.cpp:129] Top shape: 30 4096 (122880)
I0608 11:29:57.583256 19748 net.cpp:137] Memory required for data: 3454587000
I0608 11:29:57.583259 19748 layer_factory.hpp:77] Creating layer fc7
I0608 11:29:57.583266 19748 net.cpp:84] Creating Layer fc7
I0608 11:29:57.583271 19748 net.cpp:406] fc7 <- fc6
I0608 11:29:57.583276 19748 net.cpp:380] fc7 -> fc7
I0608 11:29:57.677222 19748 net.cpp:122] Setting up fc7
I0608 11:29:57.677263 19748 net.cpp:129] Top shape: 30 4096 (122880)
I0608 11:29:57.677266 19748 net.cpp:137] Memory required for data: 3455078520
I0608 11:29:57.677278 19748 layer_factory.hpp:77] Creating layer relu7
I0608 11:29:57.677289 19748 net.cpp:84] Creating Layer relu7
I0608 11:29:57.677292 19748 net.cpp:406] relu7 <- fc7
I0608 11:29:57.677301 19748 net.cpp:367] relu7 -> fc7 (in-place)
I0608 11:29:57.677585 19748 net.cpp:122] Setting up relu7
I0608 11:29:57.677597 19748 net.cpp:129] Top shape: 30 4096 (122880)
I0608 11:29:57.677600 19748 net.cpp:137] Memory required for data: 3455570040
I0608 11:29:57.677603 19748 layer_factory.hpp:77] Creating layer drop7
I0608 11:29:57.677611 19748 net.cpp:84] Creating Layer drop7
I0608 11:29:57.677615 19748 net.cpp:406] drop7 <- fc7
I0608 11:29:57.677620 19748 net.cpp:367] drop7 -> fc7 (in-place)
I0608 11:29:57.677651 19748 net.cpp:122] Setting up drop7
I0608 11:29:57.677657 19748 net.cpp:129] Top shape: 30 4096 (122880)
I0608 11:29:57.677659 19748 net.cpp:137] Memory required for data: 3456061560
I0608 11:29:57.677662 19748 layer_factory.hpp:77] Creating layer norm2
I0608 11:29:57.702229 19748 net.cpp:84] Creating Layer norm2
I0608 11:29:57.702255 19748 net.cpp:406] norm2 <- fc7
I0608 11:29:57.702265 19748 net.cpp:380] norm2 -> norm2
I0608 11:29:57.703006 19748 net.cpp:122] Setting up norm2
I0608 11:29:57.703022 19748 net.cpp:129] Top shape: 30 4096 (122880)
I0608 11:29:57.703025 19748 net.cpp:137] Memory required for data: 3456553080
I0608 11:29:57.703030 19748 layer_factory.hpp:77] Creating layer fc9_1
I0608 11:29:57.703039 19748 net.cpp:84] Creating Layer fc9_1
I0608 11:29:57.703043 19748 net.cpp:406] fc9_1 <- norm2
I0608 11:29:57.703049 19748 net.cpp:380] fc9_1 -> fc9_1
I0608 11:29:57.703733 19748 net.cpp:122] Setting up fc9_1
I0608 11:29:57.703744 19748 net.cpp:129] Top shape: 30 34 (1020)
I0608 11:29:57.703747 19748 net.cpp:137] Memory required for data: 3456557160
I0608 11:29:57.703754 19748 layer_factory.hpp:77] Creating layer triplet_select
I0608 11:29:57.704035 19748 net.cpp:84] Creating Layer triplet_select
I0608 11:29:57.704048 19748 net.cpp:406] triplet_select <- fc9_1
I0608 11:29:57.704053 19748 net.cpp:406] triplet_select <- labels
I0608 11:29:57.704058 19748 net.cpp:380] triplet_select -> archor
I0608 11:29:57.704066 19748 net.cpp:380] triplet_select -> positive
I0608 11:29:57.704071 19748 net.cpp:380] triplet_select -> negative
I0608 11:29:57.704181 19748 net.cpp:122] Setting up triplet_select
I0608 11:29:57.704205 19748 net.cpp:129] Top shape: 10 34 (340)
I0608 11:29:57.704210 19748 net.cpp:129] Top shape: 10 34 (340)
I0608 11:29:57.704212 19748 net.cpp:129] Top shape: 10 34 (340)
I0608 11:29:57.704216 19748 net.cpp:137] Memory required for data: 3456561240
I0608 11:29:57.704218 19748 layer_factory.hpp:77] Creating layer tripletloss
I0608 11:29:57.704444 19748 net.cpp:84] Creating Layer tripletloss
I0608 11:29:57.704457 19748 net.cpp:406] tripletloss <- archor
I0608 11:29:57.704463 19748 net.cpp:406] tripletloss <- positive
I0608 11:29:57.704465 19748 net.cpp:406] tripletloss <- negative
I0608 11:29:57.704471 19748 net.cpp:380] tripletloss -> loss
I0608 11:29:57.705034 19748 net.cpp:122] Setting up tripletloss
I0608 11:29:57.705047 19748 net.cpp:129] Top shape: 1 (1)
I0608 11:29:57.705051 19748 net.cpp:132]     with loss weight 1
I0608 11:29:57.705066 19748 net.cpp:137] Memory required for data: 3456561244
I0608 11:29:57.705070 19748 net.cpp:198] tripletloss needs backward computation.
I0608 11:29:57.705073 19748 net.cpp:198] triplet_select needs backward computation.
I0608 11:29:57.705076 19748 net.cpp:198] fc9_1 needs backward computation.
I0608 11:29:57.705080 19748 net.cpp:200] norm2 does not need backward computation.
…
